…
cnn-rnn02.py:177: UserWarning: Update your `Dense` call to the Keras 2 API: `Dense(units=1, name="preds")`
  model.add(Dense(output_dim=1, name='preds'))
/usr/local/lib/python2.7/dist-packages/keras/models.py:848: UserWarning: The `nb_epoch` argument in `fit` has been renamed `epochs`.
  warnings.warn('The `nb_epoch` argument in `fit` '
loading data
./cnn-rnn02.hdf5
./cnn-rnn02.res
building model
compiling model
running at most 60 epochs
_________________________________________________________________
Layer (type)                 Output Shape              Param #   
=================================================================
conv1d_1 (Conv1D)            (None, 131, 16)           272       
_________________________________________________________________
dropout_1 (Dropout)          (None, 131, 16)           0         
_________________________________________________________________
conv1d_2 (Conv1D)            (None, 128, 64)           4160      
_________________________________________________________________
max_pooling1d_1 (MaxPooling1 (None, 64, 64)            0         
_________________________________________________________________
dropout_2 (Dropout)          (None, 64, 64)            0         
_________________________________________________________________
lstm_1 (LSTM)                (None, 32)                12416     
_________________________________________________________________
dropout_3 (Dropout)          (None, 32)                0         
_________________________________________________________________
dense_1 (Dense)              (None, 128)               4224      
_________________________________________________________________
activation_1 (Activation)    (None, 128)               0         
_________________________________________________________________
dropout_4 (Dropout)          (None, 128)               0         
_________________________________________________________________
preds (Dense)                (None, 1)                 129       
_________________________________________________________________
activation_2 (Activation)    (None, 1)                 0         
=================================================================
Total params: 21,201
Trainable params: 21,201
Non-trainable params: 0
_________________________________________________________________
None
Train on 1126 samples, validate on 160 samples
Epoch 6/10000
 128/1126 [==>...........................] - ETA: 7s - loss: 0.7142 - acc: 0.3047
…
