…
cnn0303.py:168: UserWarning: Update your `Dense` call to the Keras 2 API: `Dense(units=1, name="preds")`
  model.add(Dense(output_dim=1, name='preds'))
/usr/local/lib/python2.7/dist-packages/keras/models.py:848: UserWarning: The `nb_epoch` argument in `fit` has been renamed `epochs`.
  warnings.warn('The `nb_epoch` argument in `fit` '
loading data
./cnn0303.hdf5
./cnn0303.res
building model
compiling model
running at most 60 epochs
_________________________________________________________________
Layer (type)                 Output Shape              Param #   
=================================================================
conv1d_1 (Conv1D)            (None, 127, 16)           528       
_________________________________________________________________
dropout_1 (Dropout)          (None, 127, 16)           0         
_________________________________________________________________
conv1d_2 (Conv1D)            (None, 122, 32)           3104      
_________________________________________________________________
dropout_2 (Dropout)          (None, 122, 32)           0         
_________________________________________________________________
conv1d_3 (Conv1D)            (None, 119, 64)           8256      
_________________________________________________________________
max_pooling1d_1 (MaxPooling1 (None, 59, 64)            0         
_________________________________________________________________
dropout_3 (Dropout)          (None, 59, 64)            0         
_________________________________________________________________
flatten_1 (Flatten)          (None, 3776)              0         
_________________________________________________________________
dense_1 (Dense)              (None, 64)                241728    
_________________________________________________________________
activation_1 (Activation)    (None, 64)                0         
_________________________________________________________________
dropout_4 (Dropout)          (None, 64)                0         
_________________________________________________________________
preds (Dense)                (None, 1)                 65        
_________________________________________________________________
activation_2 (Activation)    (None, 1)                 0         
=================================================================
Total params: 253,681
Trainable params: 253,681
Non-trainable params: 0
_________________________________________________________________
None
Train on 1126 samples, validate on 160 samples
Epoch 6/10000
 128/1126 [==>...........................] - ETA: 24s - loss: 0.8050 - acc: 0.2266
…
