…
cnn0302.py:168: UserWarning: Update your `Dense` call to the Keras 2 API: `Dense(units=1, name="preds")`
  model.add(Dense(output_dim=1, name='preds'))
/usr/local/lib/python2.7/dist-packages/keras/models.py:848: UserWarning: The `nb_epoch` argument in `fit` has been renamed `epochs`.
  warnings.warn('The `nb_epoch` argument in `fit` '
loading data
./cnn0302.hdf5
./cnn0302.res
building model
compiling model
running at most 60 epochs
_________________________________________________________________
Layer (type)                 Output Shape              Param #   
=================================================================
conv1d_1 (Conv1D)            (None, 127, 16)           528       
_________________________________________________________________
max_pooling1d_1 (MaxPooling1 (None, 63, 16)            0         
_________________________________________________________________
dropout_1 (Dropout)          (None, 63, 16)            0         
_________________________________________________________________
conv1d_2 (Conv1D)            (None, 58, 32)            3104      
_________________________________________________________________
max_pooling1d_2 (MaxPooling1 (None, 29, 32)            0         
_________________________________________________________________
dropout_2 (Dropout)          (None, 29, 32)            0         
_________________________________________________________________
conv1d_3 (Conv1D)            (None, 26, 64)            8256      
_________________________________________________________________
max_pooling1d_3 (MaxPooling1 (None, 13, 64)            0         
_________________________________________________________________
dropout_3 (Dropout)          (None, 13, 64)            0         
_________________________________________________________________
flatten_1 (Flatten)          (None, 832)               0         
_________________________________________________________________
dense_1 (Dense)              (None, 64)                53312     
_________________________________________________________________
activation_1 (Activation)    (None, 64)                0         
_________________________________________________________________
dropout_4 (Dropout)          (None, 64)                0         
_________________________________________________________________
preds (Dense)                (None, 1)                 65        
_________________________________________________________________
activation_2 (Activation)    (None, 1)                 0         
=================================================================
Total params: 65,265
Trainable params: 65,265
Non-trainable params: 0
_________________________________________________________________
None
Train on 1126 samples, validate on 160 samples
Epoch 6/10000
 128/1126 [==>...........................] - ETA: 6s - loss: 0.9422 - acc: 0.2578
…
