…
danq02.py:178: UserWarning: Update your `Dense` call to the Keras 2 API: `Dense(units=1, input_dim=128)`
  model.add(Dense(input_dim=128, output_dim=1))
/usr/local/lib/python2.7/dist-packages/keras/models.py:848: UserWarning: The `nb_epoch` argument in `fit` has been renamed `epochs`.
  warnings.warn('The `nb_epoch` argument in `fit` '
loading data
./danq02.hdf5
./danq02.res
building model
compiling model
running at most 60 epochs
_________________________________________________________________
Layer (type)                 Output Shape              Param #   
=================================================================
conv1d_1 (Conv1D)            (None, 131, 16)           272       
_________________________________________________________________
dropout_1 (Dropout)          (None, 131, 16)           0         
_________________________________________________________________
conv1d_2 (Conv1D)            (None, 128, 64)           4160      
_________________________________________________________________
max_pooling1d_1 (MaxPooling1 (None, 64, 64)            0         
_________________________________________________________________
bidirectional_1 (Bidirection (None, 64, 128)           66048     
_________________________________________________________________
flatten_1 (Flatten)          (None, 8192)              0         
_________________________________________________________________
dense_1 (Dense)              (None, 128)               1048704   
_________________________________________________________________
activation_1 (Activation)    (None, 128)               0         
_________________________________________________________________
dense_2 (Dense)              (None, 1)                 129       
_________________________________________________________________
activation_2 (Activation)    (None, 1)                 0         
=================================================================
Total params: 1,119,313
Trainable params: 1,119,313
Non-trainable params: 0
_________________________________________________________________
None
Train on 1126 samples, validate on 160 samples
Epoch 6/10000
 128/1126 [==>...........................] - ETA: 50s - loss: 0.6710 - acc: 0.7344
…
