…
danqgru01.py:162: UserWarning: Update your `Dense` call to the Keras 2 API: `Dense(units=1, input_dim=128)`
  model.add(Dense(input_dim=128, output_dim=1))
/usr/local/lib/python2.7/dist-packages/keras/models.py:848: UserWarning: The `nb_epoch` argument in `fit` has been renamed `epochs`.
  warnings.warn('The `nb_epoch` argument in `fit` '
loading data
./danqgru01.hdf5
./danqgru01.res
building model
compiling model
running at most 60 epochs
_________________________________________________________________
Layer (type)                 Output Shape              Param #   
=================================================================
conv1d_1 (Conv1D)            (None, 131, 64)           1088      
_________________________________________________________________
max_pooling1d_1 (MaxPooling1 (None, 65, 64)            0         
_________________________________________________________________
bidirectional_1 (Bidirection (None, 65, 128)           49536     
_________________________________________________________________
flatten_1 (Flatten)          (None, 8320)              0         
_________________________________________________________________
dense_1 (Dense)              (None, 128)               1065088   
_________________________________________________________________
activation_1 (Activation)    (None, 128)               0         
_________________________________________________________________
dense_2 (Dense)              (None, 1)                 129       
_________________________________________________________________
activation_2 (Activation)    (None, 1)                 0         
=================================================================
Total params: 1,115,841
Trainable params: 1,115,841
Non-trainable params: 0
_________________________________________________________________
None
Train on 1126 samples, validate on 160 samples
Epoch 6/10000
 128/1126 [==>...........................] - ETA: 30s - loss: 0.6830 - acc: 0.6562
…
