…
ll be removed in 0.20.
  "This module will be removed in 0.20.", DeprecationWarning)
/usr/local/lib/python2.7/dist-packages/keras/models.py:848: UserWarning: The `nb_epoch` argument in `fit` has been renamed `epochs`.
  warnings.warn('The `nb_epoch` argument in `fit` '
loading data
./deepsea02.hdf5
./deepsea02.res
building model
compiling model
running at most 60 epochs
_________________________________________________________________
Layer (type)                 Output Shape              Param #   
=================================================================
conv2d_1 (Conv2D)            (None, 8, 134, 4)         40        
_________________________________________________________________
activation_1 (Activation)    (None, 8, 134, 4)         0         
_________________________________________________________________
dropout_1 (Dropout)          (None, 8, 134, 4)         0         
_________________________________________________________________
conv2d_2 (Conv2D)            (None, 16, 134, 4)        528       
_________________________________________________________________
activation_2 (Activation)    (None, 16, 134, 4)        0         
_________________________________________________________________
dropout_2 (Dropout)          (None, 16, 134, 4)        0         
_________________________________________________________________
conv2d_3 (Conv2D)            (None, 16, 134, 4)        1040      
_________________________________________________________________
activation_3 (Activation)    (None, 16, 134, 4)        0         
_________________________________________________________________
max_pooling2d_1 (MaxPooling2 (None, 16, 134, 2)        0         
_________________________________________________________________
dropout_3 (Dropout)          (None, 16, 134, 2)        0         
_________________________________________________________________
flatten_1 (Flatten)          (None, 4288)              0         
_________________________________________________________________
dense_1 (Dense)              (None, 128)               548992    
_________________________________________________________________
activation_4 (Activation)    (None, 128)               0         
_________________________________________________________________
dense_2 (Dense)              (None, 1)                 129       
_________________________________________________________________
activation_5 (Activation)    (None, 1)                 0         
=================================================================
Total params: 550,729
Trainable params: 550,729
Non-trainable params: 0
_________________________________________________________________
None
Train on 1126 samples, validate on 160 samples
Epoch 6/10000
 128/1126 [==>...........................] - ETA: 25s - loss: 0.6949 - acc: 0.4453
…
